Model: "model_1"
_________________________________________________________________
Layer (type)                 Output Shape              Param #   
=================================================================
input_1 (InputLayer)         (None, 10, 10, 1)         0         
_________________________________________________________________
conv2d_1 (Conv2D)            (None, 9, 9, 16)          80        
_________________________________________________________________
conv2d_2 (Conv2D)            (None, 8, 8, 16)          1040      
_________________________________________________________________
conv2d_3 (Conv2D)            (None, 7, 7, 16)          1040      
_________________________________________________________________
flatten_1 (Flatten)          (None, 784)               0         
_________________________________________________________________
dense_1 (Dense)              (None, 512)               401920    
_________________________________________________________________
dense_2 (Dense)              (None, 256)               131328    
_________________________________________________________________
dense_3 (Dense)              (None, 64)                16448     
_________________________________________________________________
dense_4 (Dense)              (None, 4)                 260       
=================================================================
Total params: 552,116
Trainable params: 552,116
Non-trainable params: 0
_________________________________________________________________
t11_rot_not_sparse_pos_r0.0_2.0_0.02
Epoch:0 Test Episode:0 R:-0.1
Epoch:0 Test Episode:1 R:1.96
Epoch:0 Test Episode:2 R:0.0
Epoch:0 Test Episode:3 R:-0.08
Epoch:0 Test Episode:4 R:-0.08
Epoch:0 Test Episode:5 R:-0.02
…
